[INFO: train.py:  136]: Initializing train dataset
[INFO: train.py:  139]: Initializing val dataset
[INFO: train.py:  146]: There are 19.671875 iterations per epoch
[INFO: train.py:  171]: Here is the generator:
[INFO: train.py:  172]: TrajectoryGenerator(
  (encoder): Encoder(
    (encoder): LSTM(16, 32)
    (spatial_embedding): Linear(in_features=2, out_features=16, bias=True)
  )
  (decoder): Decoder(
    (decoder): LSTM(16, 32)
    (spatial_embedding): Linear(in_features=2, out_features=16, bias=True)
    (hidden2pos): Linear(in_features=32, out_features=2, bias=True)
  )
  (pool_net): PoolHiddenNet(
    (spatial_embedding): Linear(in_features=2, out_features=16, bias=True)
    (mlp_pre_pool): Sequential(
      (0): Linear(in_features=48, out_features=512, bias=True)
      (1): ReLU()
      (2): Linear(in_features=512, out_features=32, bias=True)
      (3): ReLU()
    )
  )
  (mlp_decoder_context): Sequential(
    (0): Linear(in_features=64, out_features=64, bias=True)
    (1): ReLU()
    (2): Linear(in_features=64, out_features=24, bias=True)
    (3): ReLU()
  )
)
[INFO: train.py:  187]: Here is the discriminator:
[INFO: train.py:  188]: TrajectoryDiscriminator(
  (encoder): Encoder(
    (encoder): LSTM(16, 64)
    (spatial_embedding): Linear(in_features=2, out_features=16, bias=True)
  )
  (real_classifier): Sequential(
    (0): Linear(in_features=64, out_features=64, bias=True)
    (1): ReLU()
    (2): Linear(in_features=64, out_features=1, bias=True)
    (3): ReLU()
  )
)
[INFO: train.py:  255]: Starting epoch 1
[INFO: train.py:  300]: t = 1 / 3934
[INFO: train.py:  302]:   [D] D_data_loss: 1.386
[INFO: train.py:  302]:   [D] D_total_loss: 1.386
[INFO: train.py:  305]:   [G] G_discriminator_loss: 0.693
[INFO: train.py:  305]:   [G] G_l2_loss_rel: 12.154
[INFO: train.py:  305]:   [G] G_total_loss: 12.848
…
